ddos/tst_model.pth (torch, 326850 bytes, 24 tensors)

W_pos f4 [400, 64]
0	0xbb4a4e66	-0.0030869483
1	0xbdde227d	-0.10846422
2	0x3ea7efee	0.3280024
3	0x3e582a4d	0.21109886
4	0x3e0bac10	0.13639855
5	0xbe5f495e	-0.21805331
6	0x3e510427	0.2041174
7	0xbe1961ed	-0.14978762
8	0x3d85b2ae	0.06528221
9	0x3ddbdd05	0.107355155
10	0xbea77c3a	-0.32711965
11	0xbe114046	-0.14184675
12	0x3da54ea3	0.080716394
13	0x3d331853	0.04372437
14	0xbe92972a	-0.28630954
15	0x3e9edf82	0.31029898
16	0x3dd852d6	0.10562675
17	0xbeb22e8a	-0.3480113
18	0x3e2c8bbf	0.16850184
19	0xbec95982	-0.39326102
20	0x3e1ec3f4	0.15504438
21	0xbea7099f	-0.32624528
22	0x3da21d08	0.079156935
23	0xbe8b2bf0	-0.2718196
24	0x3cf3907c	0.029731981
25	0x3e06d897	0.1316856
26	0x3ea7f63f	0.32805058
27	0xbbf80637	-0.0075691002
28	0xbe290ba0	-0.16508341
29	0xbd8e3352	-0.06943382
30	0xbe261495	-0.16218789
31	0x3d8c8f48	0.06863266
32	0x3e597263	0.21235041
33	0xbe9db0a7	-0.30798838
34	0x3e284c79	0.16435422
35	0xbe52e53f	-0.20595263
36	0xbeed7b5c	-0.46383178
37	0xbd9a5f72	-0.07537736
38	0xbed8cf7c	-0.42345798
39	0x3d900cfd	0.07033727
40	0xbed0027f	-0.40626904
41	0x3e73ca94	0.23807746
42	0xbed905cf	-0.42387244
43	0x3e2bc180	0.16773033
44	0xbe5a8ed2	-0.21343544
45	0x3e26b1ca	0.16278759
46	0x3d01efa1	0.03172267
47	0xbeb5590b	-0.35419497
48	0x3db1fd13	0.08690848
49	0x3dfcff56	0.12353389
50	0x3dce6a1f	0.10078835
51	0x3d66979e	0.056296937
52	0xbe0767eb	-0.13223235
53	0x3dba4beb	0.090965115
54	0xbe8ee68c	-0.27910268
55	0xbd595e77	-0.053068604
56	0xbbb1594c	-0.0054122563
57	0x3d5a1a1f	0.053247567
58	0xbd838c7f	-0.06423282
59	0x3db6c011	0.089233525
60	0xbebb2c16	-0.36557072
61	0x3e5bbd75	0.21458991
62	0xbe74fa2d	-0.2392356
63	0x3dcfba4c	0.10142955
64	0xbe1baffa	-0.15203848
65	0xbd0b2a0b	-0.033975642
66	0x3d9ee475	0.077584185
67	0xbdf0bfc4	-0.117553264
68	0x3e6db3f5	0.2321318
69	0xbe25d743	-0.16195397
70	0x3e9962e5	0.29958263
71	0xbe369c25	-0.17833002
72	0xbe65cba7	-0.22440968
73	0x3e1164b6	0.14198574
74	0xbd929531	-0.07157362
75	0xbe452fc7	-0.19256507
76	0xbe5b5fad	-0.21423216
77	0xbdf30604	-0.11866382
78	0xbe5bc49f	-0.21461724
79	0x3dfeada6	0.124354646
80	0xbddf5b1b	-0.10906049
81	0xbdeba5d7	-0.11506241
82	0x3de8de9e	0.11370586
83	0xbebda5c0	-0.3704052
84	0x3e210d3a	0.15727702
85	0xbe0f3d1e	-0.13988158
86	0x3e99a2a1	0.30006889
87	0xbdcf4467	-0.101204686
88	0x3e855a3a	0.260454
89	0x3e5872b3	0.21137504
90	0xbdb21ec3	-0.086972736
91	0x3c7080bd	0.014679131
92	0x3de97862	0.11399914
93	0x3e65e283	0.22449689
94	0xbdc680ad	-0.09692512
95	0xbc040f34	-0.008060265
96	0x3c09648a	0.008385787
97	0xbe053dba	-0.13011828
98	0x3e9de693	0.30839977
99	0xbeabff5e	-0.33593267
100	0xbe818779	-0.2529867
101	0xbe2bd4cc	-0.16780394
102	0xbf08847a	-0.53327143
103	0xbda66181	-0.08124066
104	0xbe97184c	-0.29510725
105	0x3e371c52	0.17881897
106	0xbe506df1	-0.2035444
107	0xbccf49b8	-0.025303707
108	0xbd53ed98	-0.05174026
109	0x3d48631a	0.048922636
110	0xbe8c5694	-0.27409804
111	0xbe4621f1	-0.19348885
112	0x3e03b1e7	0.12860833
113	0x3e65d867	0.22445832
114	0x3e59f0d3	0.21283273
115	0x3d8a1c13	0.06743636
116	0x3e3af009	0.18255629
117	0x3dc09e55	0.094051994
118	0xbe1787e5	-0.14797933
119	0xbe8b47c1	-0.2720318
120	0xbd1e338a	-0.03862337
121	0xbe0fdbe9	-0.14048733
122	0xbe68705b	-0.2269911
123	0x3e5556c8	0.20833886
124	0xbdf3e4c5	-0.11908869
125	0x3e816a0b	0.25276217
126	0x3dfb5110	0.12271321
127	0x3de668ea	0.112504795
128	0xbe0dcf9c	-0.13848728
129	0xbe01db41	-0.12681295
130	0x3e954142	0.2915135
131	0x3de66eb8	0.11251587
132	0x3e93547f	0.28775403
133	0xbe2bd9b7	-0.1678227
134	0x3e48e54b	0.19618718
135	0xbe1b4324	-0.15162331
136	0xbe7e3766	-0.2482582
137	0x3e72803b	0.23681729
138	0xbe7edb5d	-0.24888368
139	0xbea34a4f	-0.3189263
140	0xbd5f4375	-0.05450769
141	0x3ea6f762	0.32610613
142	0x3d98bc97	0.07457846
143	0x3e8d1763	0.27556905
144	0x3e2cb5cb	0.16866224
145	0xbeaae06f	-0.33374354
146	0xbcbd0fbc	-0.023078792
147	0xbec6d7dc	-0.38836563
148	0x3ea14e9b	0.31505284
149	0xbe772f2d	-0.2413909
150	0x3eca33c9	0.39492634
151	0xbe572de2	-0.21013597
152	0x3e4418c4	0.19150072
153	0x3eca4792	0.3950773
154	0x3e18d5b7	0.14925276
155	0x3e057b2f	0.13035272
156	0x3c8be556	0.01707713
157	0x3e0c7acc	0.13718718
158	0xbe68cc8a	-0.22734275
159	0xbdd17378	-0.10227102
160	0xbd9018ac	-0.07035956
161	0xbeb12e47	-0.3460562
162	0x3e874dca	0.26426536
163	0xbe416da8	-0.18889487
164	0xbedc22d4	-0.42995322
165	0xbe4fc384	-0.20289427
166	0xbedc028f	-0.42970702
167	0x3ecab4cd	0.39591065
168	0xbeb2f79b	-0.34954533
169	0x3dce977e	0.100874886
170	0xbe68978b	-0.22714059
171	0xbe66d45d	-0.22541948
172	0xbc44a78a	-0.012002835
173	0x3e3ffdfd	0.18749233
174	0xbe04dcc0	-0.12974834
175	0xbeb9f6af	-0.36321017
176	0x3e04690d	0.12930699
177	0x3e9a1a4f	0.30098197
178	0x3dbb0d8c	0.09133443
179	0xbd9e010a	-0.07715042
180	0xbd8a5046	-0.06753592
181	0xbde284a7	-0.11060458
182	0xbda7a819	-0.08186359
183	0x3d050da3	0.032483708
184	0x3b9925e8	0.004673708
185	0x3eb969cc	0.3621353
186	0xbe829835	-0.2550675
187	0x3e6783a0	0.22608805
188	0xbee0d2bc	-0.43910778
189	0x3e2f4989	0.17117895
190	0xbd23a1d3	-0.03994925
191	0x3ed97e23	0.42479047
192	0x3d08a63d	0.033361662
193	0xbd95676e	-0.07295118
194	0x3e95630c	0.2917713
195	0xbd77d97e	-0.06051015
196	0x3ebab33f	0.3646488
197	0xbe722c60	-0.2364974
198	0x3e4b2053	0.1983655
199	0xbea709bf	-0.32624623
200	0xbc23a78b	-0.009988676
201	0x3e9878a9	0.29779556
202	0xbe65b675	-0.22432883
203	0xbe39146c	-0.18074197
204	0xbda6710d	-0.081270315
205	0x3d1a99b1	0.037744228
206	0xbe801740	-0.25017738
207	0x3e39e0c3	0.18152146
208	0x3e6eebb3	0.233321
209	0xbe81c4ae	-0.25345367
210	0x3e77a4c2	0.24183944
211	0xbeefd964	-0.46845543
212	0x3ea771d7	0.3270404
213	0xbe038aa0	-0.1284585
214	0xbdb72a3e	-0.08943604
215	0xbeb67bd0	-0.35641336
216	0x3ec5a67f	0.3860359
217	0x3ebd16b0	0.36931372
218	0x3eb3e93c	0.3513888
219	0x3e1b709c	0.15179676
220	0xbcb4cd00	-0.022070408
221	0xbcdc9ba4	-0.026929684
222	0xbd804ee0	-0.06265044
223	0x3da6e07e	0.08148287
224	0xbd5a1a34	-0.053247645
225	0xbec43106	-0.38318652
226	0x3ecf5378	0.4049337
227	0xbdd8579a	-0.10563584
228	0xbf12738f	-0.5720758
229	0xbeba18c4	-0.3634702
230	0xbf07f531	-0.5310851
231	0x3da6c3f6	0.08142845
232	0xbe960545	-0.29300895
233	0x3ea90eab	0.33019003
234	0xbeb71684	-0.35759366
235	0xbe28fde3	-0.165031
236	0xbe82f77c	-0.2557944
237	0x3e8d02c7	0.2754118
238	0xbe120693	-0.1426032
239	0xbefb6114	-0.49097502
240	0x3eb20d52	0.34775788
241	0x3e8203f0	0.2539363
242	0x3e38bba9	0.18040337
243	0x3dee57f1	0.11637867
244	0xbd8da167	-0.06915551
245	0xbdbfde0d	-0.09368525
246	0xbe9b6d7b	-0.30356964
247	0xbe532f8b	-0.20623605
248	0xbdc69705	-0.096967734
249	0x3ed0c826	0.407777
250	0xbe881552	-0.26578766
251	0x3e5f5f21	0.21813633
252	0xbeddf899	-0.43353727
253	0x3e26b24e	0.16278955
254	0xbe27af93	-0.1637557
255	0x3e241e98	0.16027296

weight f4 [64, 1]
0	0xbc96bdc8	-0.018401042
1	0x3f3fdfa3	0.7495062
2	0x3d827fd1	0.06372035
3	0x3f2ab5be	0.66683567
4	0xbce75bef	-0.02824208
5	0x3cabfa74	0.020993449
6	0xbf0d7a52	-0.5526477
7	0x3eb1ae5e	0.34703344
8	0x3e96067c	0.29301822
9	0xbe5c78bc	-0.21530432
10	0x3eed903e	0.4639911
11	0x3bf6492d	0.0075160475
12	0x3f64bb9d	0.89348775
13	0x3d35271c	0.04422675
14	0x3d8a8e32	0.06765403
15	0x3cfcf4d6	0.030878466
16	0x3f1a030f	0.6016092
17	0xbb92369f	-0.0044620777
18	0xbc963459	-0.018335508
19	0x3e0675c1	0.13130857
20	0xbe3d12e4	-0.18464237
21	0xbd6d3e5e	-0.057920806
22	0xbd331665	-0.04372253
23	0x3eeb4216	0.45948857
24	0xbe8b8f3c	-0.27257717
25	0xbdf3511a	-0.11880703
26	0x3d13ee89	0.036116157
27	0x3d02f43d	0.031971205
28	0x3bb9b101	0.0056668525
29	0xbf5f487b	-0.8721997
30	0x3f860519	1.0470306
31	0xbece4898	-0.4028976
32	0x3e5ecfba	0.21758929
33	0xbd0b919c	-0.03407441
34	0xbddfe5c6	-0.10932498
35	0x3f778ea8	0.9670205
36	0x3c2225a2	0.009896668
37	0x3e70d767	0.2351967
38	0xbcd94cc6	-0.026525866
39	0xbc1a9a4b	-0.0094362
40	0x3ce0e73d	0.027454013
41	0x3d11855d	0.035527576
42	0xbc3f9eec	-0.011695605
43	0x3f19e0ef	0.60108846
44	0x3f11f8eb	0.57020444
45	0xbe628048	-0.22119248
46	0x3e52d282	0.20588115
47	0xbd7dc116	-0.06195172
48	0xbd218712	-0.039435454
49	0xbe410ebb	-0.18853275
50	0xbf07d438	-0.53058195
51	0xbe16453b	-0.14674847
52	0xbf4c6fc5	-0.79858047
53	0x3f1673ca	0.5877043
54	0x3cd226b5	0.025653223
55	0x3ebf72e6	0.37392348
56	0x3d428d15	0.047497828
57	0xbcf17b54	-0.029477753
58	0x3f02e310	0.5112772
59	0xbe5fd169	-0.21857227
60	0xbc896c4d	-0.016775275
61	0xbced4c61	-0.028967084
62	0xbc7d5e6b	-0.0154644055
63	0xbcbf1552	-0.023325596

bias f4 [64]
0	0x3c1381bb	0.009003098
1	0xbd8ff4ad	-0.0702909
2	0x3dcb488d	0.09925947
3	0xbe9c4360	-0.30520153
4	0x3bb3ffc0	0.0054931343
5	0xbd99cedb	-0.07510158
6	0x3f2a47cc	0.66515803
7	0x3db5269b	0.08845254
8	0x3eb12b66	0.34603423
9	0xbdd10ec1	-0.10207892
10	0xbe98071a	-0.29692918
11	0xbde7bf72	-0.11315812
12	0xbea2f6c4	-0.31828892
13	0x3e239868	0.15976107
14	0x3df4ac35	0.119469084
15	0x3e60c949	0.21951784
16	0xbe86f795	-0.26360765
17	0xbd186e7d	-0.037214745
18	0x3e07f0d1	0.13275458
19	0xbcd77690	-0.026301652
20	0x3e563c9c	0.20921558
21	0xbdbbe1a2	-0.091738954
22	0x3d9ea1b6	0.07745688
23	0xbdfe198f	-0.12407219
24	0xbe5d0339	-0.2158326
25	0x3e5d9327	0.21638165
26	0x3e0a1ce9	0.13487591
27	0xbc483041	-0.012218536
28	0x3d8d27db	0.068923675
29	0x3ecbe793	0.39825115
30	0xbf067408	-0.525208
31	0xbe001058	-0.12506235
32	0x3e447847	0.19186507
33	0xbd6ffd59	-0.05859122
34	0xbe67b4c7	-0.22627555
35	0xbf1363b6	-0.5757402
36	0xbd195884	-0.03743793
37	0x3cf043c3	0.029329186
38	0x3ce6ce47	0.028174533
39	0xbd225bf7	-0.039638486
40	0x3dc60f83	0.096709274
41	0xbe41c45d	-0.18922563
42	0xbdecb776	-0.1155843
43	0xbe907f9c	-0.28222358
44	0xbebc6265	-0.3679382
45	0xbe602a50	-0.21891141
46	0x3eba0285	0.36330047
47	0x3de8ceb2	0.11367549
48	0x3caa4201	0.020783426
49	0xbe75eb58	-0.24015558
50	0xbe1c36a3	-0.15255217
51	0xbe45ea40	-0.1932764
52	0x3e6ca752	0.23110703
53	0xbeb0e13a	-0.34546834
54	0xbe1f09af	-0.15531038
55	0xbe95c8bf	-0.2925472
56	0x3cf117dd	0.029430324
57	0xbdaeb7bc	-0.08531138
58	0x3b8b1661	0.004244611
59	0xbe548cf1	-0.2075689
60	0xbe49a6b7	-0.19692503
61	0xbe61cd03	-0.22050862
62	0x3c52f468	0.012875654
63	0xbd12aac0	-0.03580737

weight f4 [64, 64]
0	0x3cfe98e7	0.031078769
1	0x3d28f2e2	0.041247256
2	0x3d0ace3d	0.03388809
3	0x3dab9c3f	0.08379411
4	0x3dd7e154	0.10541025
5	0xbe22b46e	-0.15889141
6	0x3d88d9ba	0.06682153
7	0x3d649535	0.055806357
8	0x3cb65bb0	0.022260517
9	0xbd3c39dc	-0.045953616
10	0x3c2306df	0.009950369
11	0xbdeb0a4b	-0.114765726
12	0x3d8bb47a	0.068215325
13	0x3e5c7744	0.21529871
14	0x3e024817	0.12722813
15	0x3e562c44	0.20915323
16	0x3b2d1492	0.0026409966
17	0xbe163d5c	-0.14671844
18	0x3d4701b1	0.048585597
19	0xbe2aa8f9	-0.1666602
20	0x3d558570	0.05212921
21	0xbea74e2b	-0.32676825
22	0x3d6b53cc	0.05745296
23	0x3da82817	0.082107715
24	0xbd12d619	-0.03584871
25	0xbc9188c2	-0.017765407
26	0x3e0a59d1	0.13510825
27	0x3da3a8cc	0.0799118
28	0x3e230d07	0.15922938
29	0xbdbd460e	-0.092418775
30	0x3d405c9f	0.04696333
31	0xbd190471	-0.03735775
32	0x3ceca561	0.028887453
33	0xbe068c16	-0.13139376
34	0x3d1b1e80	0.037870884
35	0x3d64ca3f	0.05585694
36	0xbe078b81	-0.1323681
37	0x3d8f93ee	0.07010637
38	0x3c7deeaf	0.015498801
39	0x3b5c08d9	0.003357461
40	0x3c2e0dda	0.01062342
41	0xbdbe92b8	-0.09305328
42	0xbe091c31	-0.1338966
43	0x3dbe651b	0.09296628
44	0x3da79bae	0.081839904
45	0xbd7e6630	-0.062109172
46	0x3d60ade8	0.05485335
47	0x3d8e3147	0.06942993
48	0xbddea2d7	-0.10870903
49	0xbdb62ba5	-0.08895043
50	0xbce518eb	-0.027965983
51	0xbd1af4de	-0.03783118
52	0x3cd1e0cf	0.025619892
53	0x3df23d74	0.118281275
54	0xbdfe6ca2	-0.12423064
55	0xbcdeef84	-0.02721382
56	0x3e347536	0.17622837
57	0xbe91dbd5	-0.2848803
58	0x3db1e709	0.086866446
59	0xbd565a83	-0.052332412
60	0xbe5f3f6c	-0.21801537
61	0x3d520900	0.051278114
62	0x3e1dc1ca	0.15405956
63	0x3e806a68	0.25081182
64	0x3c2bec23	0.010493311
65	0x3bbc231d	0.0057414905
66	0x3df04f6f	0.11733901
67	0xbce3d970	-0.027813643
68	0xbd6ca70c	-0.057776496
69	0xbd526101	-0.05136204
70	0x3bfc4e5e	0.007699772
71	0x3c68f733	0.014219093
72	0x3c6b653d	0.014367399
73	0xbcf6cb43	-0.03012622
74	0x3d3d72a0	0.046251893
75	0x3cc68932	0.024235342
76	0x3cdd866d	0.027041638
77	0xbc3b87b2	-0.0114459265
78	0xbc84bd3f	-0.01620352
79	0xbbafc4e3	-0.005364047
80	0xbdaaafb0	-0.08334291
81	0xbe0ce1f1	-0.13758065
82	0x3dd83501	0.10556985
83	0xbdf4d89d	-0.11955378
84	0xbb074d6c	-0.0020645512
85	0x3ce45ef0	0.027877301
86	0x3d0f8b24	0.035044804
87	0x3da2bb6c	0.07945904
88	0xbbee8a7e	-0.007279693
89	0xbcc63264	-0.02419395
90	0x3dd9d8b8	0.10637039
91	0x3de05dba	0.10955377
92	0xbbb60091	-0.0055542667
93	0xbdb2add1	-0.08724559
94	0xbc88d8b3	-0.016704893
95	0x3d837e68	0.064205945
96	0xbd2d56f9	-0.04231927
97	0x3dafa8db	0.085771285
98	0x3ddf540c	0.109047025
99	0x3d9f18b2	0.07768382
100	0xbdd9f8ed	-0.10643182
101	0xbd8f6527	-0.07001715
102	0x3d1c31a8	0.038133293
103	0x3ccaac14	0.024740256
104	0xbd924408	-0.07141882
105	0xbd18742e	-0.037220173
106	0xbd9bedcb	-0.07613715
107	0xbd3ae885	-0.045631904
108	0x3c4202c7	0.0118414825
109	0xbb7c2d5a	-0.003847918
110	0xbd3fd42e	-0.04683321
111	0x3d4c4647	0.04987171
112	0xbde0a004	-0.109680206
113	0xbd825323	-0.06363513
114	0x3c04d67d	0.008107779
115	0x3cd6c637	0.026217563
116	0xbd696186	-0.05697777
117	0xbd8b4685	-0.0680056
118	0xbd28943a	-0.041156985
119	0x3d87094a	0.065935686
120	0x3ab31834	0.0013663829
121	0x3c5785b1	0.013154433
122	0x3c93ea1a	0.018055964
123	0xba8945c5	-0.0010473063
124	0xbc7757f3	-0.015096652
125	0x3be4ba31	0.0069802036
126	0x3d6ced40	0.057843447
127	0x3cdff2be	0.027337428
128	0xbcb92e9c	-0.022605233
129	0xbe004229	-0.12525238
130	0x3e47bb6f	0.19505094
131	0x3aa24adb	0.0012381928
132	0x3c03d8b3	0.008047271
133	0x3d474919	0.048653696
134	0xbdb3fd75	-0.087885775
135	0xbdda7a22	-0.10667826
136	0xbe0d437d	-0.13795276
137	0x3e4a5459	0.19758739
138	0x3d4d467c	0.050116047
139	0x3dfb97c4	0.12284806
140	0xbd099bf6	-0.033596
141	0xbe1dc891	-0.15408541
142	0xbd3ce34b	-0.0461152
143	0xbd20c46b	-0.03924982
144	0x3c0c8d6c	0.0085786395
145	0xbdc433f0	-0.09580219
146	0xbd188cb3	-0.037243556
147	0xbdaa1424	-0.08304623
148	0xbd5a8160	-0.053346038
149	0x3e3bdb3c	0.1834535
150	0xbd394843	-0.04523493
151	0xbca5d091	-0.020241054
152	0x3e15887c	0.14602846
153	0x3ca20123	0.019775933
154	0xbbf61d47	-0.0075108144
155	0x3df1ce85	0.118069686
156	0x3b50992e	0.0031829583
157	0x3d08c56c	0.0333914
158	0x3c6587af	0.0140094
159	0x3e5037ec	0.20333833
160	0xbd1b96c3	-0.037985574
161	0x3d27d3f7	0.04097363
162	0x3e1b9483	0.15193371
163	0xbbf3582c	-0.0074262824
164	0xbda5b72d	-0.08091579
165	0xbe42de37	-0.1903008
166	0xbe74cd7c	-0.23906511
167	0xbe3ac79a	-0.18240204
168	0xbd84727f	-0.06467151
169	0x3dc8c21c	0.098026484
170	0x3c96e2c9	0.018418686
171	0xbc8bcdd6	-0.017065924
172	0x3cde925a	0.027169395
173	0x3df4beb8	0.11950439
174	0xbe457e59	-0.19286479
175	0xbe487b0f	-0.19578193
176	0xbd07c6c8	-0.033148557
177	0x3e5a3320	0.21308565
178	0x3e4f5426	0.20246944
179	0x3e148fd1	0.14507987
180	0x3befd2ef	0.0073188464
181	0x3ca9edbc	0.020743243
182	0xbb2e9668	-0.0026639942
183	0x3d15dea7	0.03658929
184	0xbcebfacd	-0.028806115
185	0x3c2eca35	0.010668327
186	0xbd9b8e8e	-0.075955495
187	0x3e3093a1	0.17243816
188	0x3db547da	0.08851595
189	0x3e345ed9	0.17614307
190	0xbe34f2df	-0.17670773
191	0xbd0777c0	-0.033073187
192	0x3bdbbc21	0.0067057763
193	0x3df26e63	0.11837461
194	0xbcff7bf2	-0.031187031
195	0x3ce8403a	0.028350938
196	0x3e140b77	0.14457498
197	0x390d8a33	0.00013498291
198	0xbcc34061	-0.02383441
199	0x3d1923d2	0.037387677
200	0x3d324fd9	0.04353318
201	0x3d1e2328	0.038607746
202	0x3d1bce8f	0.038038787
203	0x3de80938	0.11329883
204	0xbcba9005	-0.022773752
205	0xbd36cf7c	-0.044631466
206	0xbdac23ad	-0.08405242
207	0xbd82b6eb	-0.06382545
208	0x3d3813bb	0.04494069
209	0x3d0a6c8f	0.033794936
210	0x3d667680	0.056265354
211	0xbcf1ecba	-0.029531825
212	0x3dccfcb3	0.10009136
213	0xbe07a03b	-0.13244717
214	0xbe2421a2	-0.16028455
215	0xbd8a8f4a	-0.067656115
216	0xbd452ca6	-0.048138283
217	0xbba5cf04	-0.0050600786
218	0xbd2d56c5	-0.042319078
219	0xbd73df83	-0.05953933
220	0xbdd58da5	-0.10427407
221	0xbcf0f139	-0.029411899
222	0xbc9d55a6	-0.01920588
223	0xbd4bfa3b	-0.049799185
224	0x3d33894e	0.043832116
225	0x3e3744f6	0.178974
226	0xbe04fc99	-0.12986983
227	0x3c3ba10b	0.01145197
228	0xbcfb55cf	-0.030680565
229	0xbd3b12a3	-0.04567207
230	0xbdbd54a9	-0.09244663
231	0x3e28434f	0.16431926
232	0xbdd07063	-0.10177686
233	0x3e04ead7	0.1298021
234	0x3dd37275	0.10324565
235	0x3c0c1ce1	0.008551807
236	0x3c0579b5	0.008146693
237	0xbd615ce6	-0.055020235
238	0x3d037cb9	0.032101367
239	0x3d136734	0.035987094
240	0xbcfd3df6	-0.030913334
241	0xbcc88b3d	-0.024480456
242	0xbbd6ad3f	-0.0065514143
243	0xbd54491a	-0.051827528
244	0x3d129a72	0.03579182
245	0xbca29497	-0.019846244
246	0x3d71d597	0.059041586
247	0xbcc39d4f	-0.023878722
248	0xbd8306ac	-0.06397757
249	0x3d2254b4	0.03963156
250	0x3d05286d	0.032509256
251	0xbd617ea1	-0.055052403
252	0x3d399feb	0.045318525
253	0xbda6cb16	-0.08144204
254	0xbcf646ac	-0.030062996
255	0xbde1f228	-0.11032516

bias f4 [64]
0	0xbd20f095	-0.039291937
1	0xbd190318	-0.037356466
2	0xbdc5c87e	-0.096573815
3	0x3d294641	0.041326765
4	0xbde2972c	-0.1106399
5	0xbed266ee	-0.41094154
6	0xbe9b30e5	-0.3031074
7	0xbd998343	-0.07495739
8	0x3dda952b	0.10672983
9	0xbe49015c	-0.19629425
10	0xbe621579	-0.22078504
11	0x3dcfac9a	0.10140343
12	0x3ea5aff5	0.32360807
13	0x3d484529	0.04889408
14	0x3e74471c	0.23855251
15	0x3e5eaf78	0.21746624
16	0x3bfbf0fa	0.0076886388
17	0x3da1cfc3	0.079009555
18	0x3d277d45	0.04089095
19	0x3df92ed5	0.121671356
20	0x3eb93d20	0.36179447
21	0x3d903cd5	0.07042853
22	0x3d793f5b	0.060851436
23	0xbe7cdfb4	-0.24694711
24	0x3d974768	0.073866665
25	0xbeae3bf6	-0.34030122
26	0x3d9c002f	0.076172225
27	0x3eb9faeb	0.36324248
28	0xbd89d02d	-0.067291595
29	0x3e29a827	0.16568051
30	0x3e8d799d	0.27631846
31	0xbc187f1e	-0.009307651
32	0xbe1e18e5	-0.15439184
33	0x3ca28460	0.019838512
34	0x3da39502	0.07987405
35	0x3a080e36	0.0005190106
36	0xbe9feff3	-0.31237754
37	0x3d56ffcf	0.05249005
38	0xbd93c741	-0.07215739
39	0xbe1cded6	-0.1531938
40	0x3ea79dcf	0.32737586
41	0x3cd42925	0.025898525
42	0xbea86d2e	-0.32895797
43	0xbba1dea9	-0.0049398732
44	0x3e89eb79	0.26937464
45	0x3d76dc5e	0.060268752
46	0x3e01d183	0.12677579
47	0xbe4a6150	-0.19763684
48	0xbda319ff	-0.07963943
49	0x3ca3c635	0.019991973
50	0x3e7bf444	0.24604899
51	0xbea0005d	-0.31250277
52	0xbd740c5e	-0.059582107
53	0xbe321c9d	-0.17393728
54	0xbe9fd965	-0.31220546
55	0xbea02e02	-0.312851
56	0xbdbe3c91	-0.09288896
57	0x3d8d3404	0.06894687
58	0xbdf65de5	-0.12029628
59	0xbe136553	-0.14394121
60	0x3e0754c0	0.13215923
61	0x3e4ebe4b	0.20189779
62	0x3da49860	0.08036876
63	0xbea4da0f	-0.32197616

weight f4 [64, 64]
0	0x3d0f7f3f	0.03503346
1	0x3cf2583b	0.029583087
2	0x3ea18d10	0.31552935
3	0x3d850481	0.06495
4	0x3e66af47	0.225278
5	0xbd944f41	-0.07241679
6	0x3d286059	0.04110751
7	0xbc9de639	-0.019274818
8	0x3da7216f	0.08160674
9	0xbd4dcd38	-0.05024454
10	0x3df6ff4d	0.120604135
11	0xbdeac386	-0.114630744
12	0x3cfdd511	0.030985387
13	0x3e3e9c37	0.18614279
14	0x3dee31f2	0.1163062
15	0x3e541d13	0.20714216
16	0x3d9a3cc4	0.075311214
17	0xbe5cd555	-0.21565755
18	0x3cf24a8c	0.029576562
19	0xbe37c7f6	-0.17947373
20	0x3bc6c2ed	0.0060657174
21	0xbf165a91	-0.58731943
22	0x3c359ee6	0.011085248
23	0xbccda216	-0.025101703
24	0xbd51e0a9	-0.051239643
25	0x3de320e3	0.11090257
26	0x3e2f4058	0.17114389
27	0x3daa9547	0.08329254
28	0x3e2a063b	0.16603939
29	0xbd878831	-0.06617773
30	0x3d98416c	0.07434353
31	0xbca38ecc	-0.019965552
32	0x3e4146b4	0.18874627
33	0xbe7478bf	-0.23874186
34	0x3d257193	0.040391516
35	0x3d8d1ff0	0.06890857
36	0xbe429de8	-0.19005549
37	0x3d89d114	0.067293316
38	0xbed81d75	-0.42209974
39	0x3cad6f18	0.021171138
40	0xbd04426f	-0.03228992
41	0xbd282d35	-0.041058738
42	0xbdeae0e0	-0.11468673
43	0x3d6cb972	0.057794042
44	0x3d009fff	0.031402584
45	0xbca0bb67	-0.01962061
46	0xbc061437	-0.0081835305
47	0xbe89041d	-0.2676095
48	0x3d366199	0.04452667
49	0xbc29a55b	-0.010354365
50	0xbdcc3dfa	-0.099727586
51	0xbe018cf9	-0.12651433
52	0x3be1db6d	0.0068926127
53	0x3dcc9791	0.099898465
54	0xbe14e54c	-0.14540595
55	0x3d1bbe44	0.03802325
56	0x3d0738c9	0.03301314
57	0xbea1173a	-0.31463033
58	0x3da361ab	0.07977613
59	0xbd30c766	-0.04315891
60	0xbe31a288	-0.17347157
61	0xbdea6a0c	-0.11446008
62	0xbda46e21	-0.08028818
63	0x3e1f7405	0.15571602
64	0xbe0c8f9c	-0.13726658
65	0xbd6dd9f9	-0.058069203
66	0x3d70ffa7	0.05883756
67	0xbbaee2bd	-0.005337088
68	0xbd38a384	-0.045077816
69	0xbdb1c646	-0.08680396
70	0x3d2f60f2	0.042817064
71	0xbd04198a	-0.03225092
72	0xbcc83aae	-0.024442043
73	0x3ba6aa96	0.0050862534
74	0xbd43edcf	-0.047834214
75	0xbd610941	-0.054940466
76	0xb82e5a84	-4.1569132e-05
77	0x3da298e4	0.07939318
78	0x3da83f0e	0.08215152
79	0xbc579f5d	-0.013160554
80	0x3c4a41ed	0.0123448195
81	0x3c9793d0	0.0185031
82	0x3c8a4278	0.016877398
83	0xbbc34770	-0.0059594437
84	0xbd5e94fc	-0.0543413
85	0x3dad83e7	0.08472424
86	0x3db7c75c	0.08973572
87	0x3cd590ad	0.026069963
88	0x3d5dc9b1	0.054147426
89	0x3d0f38ff	0.034966465
90	0x3e0ab960	0.13547277
91	0x3d1b783a	0.037956454
92	0xbe0fabe2	-0.14030412
93	0x3cd3613b	0.025803199
94	0xbc1f98d0	-0.009741023
95	0xbd0bd903	-0.034142505
96	0x3d5a3070	0.05326885
97	0xbd99a4e1	-0.07502151
98	0xbd0f643d	-0.035007704
99	0x3da1c9e9	0.078998394
100	0xbdc16c57	-0.09444492
101	0xbd14a0f7	-0.03628632
102	0xbd2db728	-0.042411
103	0x3e096412	0.1341708
104	0x3d2f2b07	0.042765643
105	0x3d59e69d	0.053198446
106	0xbdd0ca06	-0.10194783
107	0x3c91d919	0.017803716
108	0x3ccf474a	0.025302548
109	0xbc7114db	-0.014714445
110	0x3b552f2e	0.0032529342
111	0x3d53ce87	0.05171063
112	0xbe07419d	-0.13208623
113	0x3d47c59c	0.04877244
114	0xbc5b5a22	-0.013388189
115	0xbd61a2ad	-0.05508678
116	0xbda8a48e	-0.08234511
117	0x3ca3cabb	0.01999413
118	0xbd4dc9bc	-0.050241217
119	0xbd743520	-0.059620976
120	0x3d0048c6	0.031319402
121	0x3e1ddfcf	0.15417407
122	0xbcd3d1b4	-0.02585683
123	0xbcdb3ece	-0.026763346
124	0xbdbed8a4	-0.09318665
125	0xbcbe6298	-0.023240373
126	0xbd75a5ed	-0.059972692
127	0x3e11e0b7	0.14245878
128	0xbdaf0b10	-0.08547032
129	0xbdb4ff0f	-0.08837711
130	0x3bc14b39	0.00589886
131	0xbdd8a003	-0.10577395
132	0x3bbe94ab	0.0058160624
133	0x3d8277a2	0.063704744
134	0x3d54a445	0.051914472
135	0xbcd415e3	-0.025889343
136	0xbd089c54	-0.03335221
137	0x3dc5094d	0.096209146
138	0xbbd6200e	-0.006534583
139	0x3c0429c2	0.008066596
140	0xbdc6e70c	-0.097120374
141	0x3ca3a56d	0.019976342
142	0xbd0102d0	-0.031496823
143	0x3d78d140	0.06074643
144	0xbbf5a620	-0.0074966103
145	0x3cd17418	0.025568053
146	0x3c36b3c2	0.011151256
147	0x3d95558c	0.072917074
148	0xb91c1f05	-0.00014888875
149	0x3dd64c47	0.104637675
150	0xbcbdba20	-0.02316004
151	0x3d4f047b	0.050541382
152	0xbc1efba0	-0.009703547
153	0x3d0a03e4	0.033695117
154	0x3d304f27	0.043044236
155	0x3dc2d721	0.09513689
156	0xbd5b1d5f	-0.053494807
157	0x3cb59cdb	0.022169521
158	0xbbdf804c	-0.006820714
159	0x3c6a802e	0.014312787
160	0xbdb4d66a	-0.08829959
161	0xbe2077bf	-0.1567068
162	0x3c307204	0.010769371
163	0xbc5b9c2c	-0.0134039335
164	0x3d4d302e	0.050094776
165	0xbc75a702	-0.014993431
166	0x3e4b7f96	0.19872889
167	0xbcdf775b	-0.027278593
168	0x3d7373d0	0.05943662
169	0xbdd4ebac	-0.10396513
170	0xbd80813d	-0.0627465
171	0xba69b38e	-0.00089150004
172	0xbda37ea0	-0.07983136
173	0x3d3e369b	0.046438795
174	0x3d41dcbc	0.04732965
175	0x3dc37bf5	0.09545127
176	0xbd566c6e	-0.0523495
177	0xbc7b3d31	-0.015334413
178	0xbd47c6a6	-0.04877343
179	0x3de0ada6	0.10970621
180	0x3d86f8c5	0.06590418
181	0xbd9ab15a	-0.075533584
182	0x3c9c67a7	0.019092394
183	0xbd98d156	-0.07461803
184	0xbb05d241	-0.002041951
185	0xbd4ea4ab	-0.05045001
186	0x3c557812	0.013029115
187	0xbc1ceaac	-0.0095774345
188	0x3d88c51b	0.0667822
189	0xbaaa044a	-0.0012971249
190	0xbe22e0e4	-0.15906101
191	0xbdf98eec	-0.12185463
192	0x3e074c46	0.1321269
193	0x3cab64c2	0.020922069
194	0xbd86d624	-0.06583813
195	0x3d220842	0.039558657
196	0x3c35035e	0.011048166
197	0xbcd0247c	-0.025408022
198	0xbc6da3f3	-0.014504421
199	0x3d30e5eb	0.043188017
200	0xbc982989	-0.018574493
201	0x3b89e7f2	0.0042085582
202	0xbbf0354d	-0.0073305727
203	0x3e7715d2	0.24129418
204	0x3c89b2f0	0.016808957
205	0xbd8bf936	-0.068346426
206	0xbd831e63	-0.0640228
207	0xbb697c17	-0.0035626942
208	0x3d2ef98a	0.042718448
209	0xbb416d0a	-0.0029514455
210	0x3d7a0ee8	0.061049372
211	0xbd72b3d1	-0.059253518
212	0xbb8438c2	-0.0040350864
213	0xbdcbd256	-0.09952228
214	0xbdfed5f0	-0.12443149
215	0xbcb6ebcf	-0.02232924
216	0xbd4b5893	-0.049645018
217	0xbd208576	-0.03918978
218	0xbda8d200	-0.08243179
219	0xbdac14b9	-0.0840239
220	0x3da546cd	0.08070145
221	0xbd15b0f2	-0.0365457
222	0x3d28f533	0.041249465
223	0xbd8efc97	-0.069817714
224	0x3d948aa5	0.07253007
225	0x3dc3209d	0.09527705
226	0x3da5da00	0.08098221
227	0xbc8bf1d3	-0.017083084
228	0x3d8d9106	0.06912427
229	0x3d1a19a8	0.037622124
230	0x3d614d87	0.055005576
231	0x3e0f847f	0.14015387
232	0x3d0e897f	0.034799095
233	0xbe092426	-0.13392696
234	0x3e066311	0.13123728
235	0xbd282447	-0.04105022
236	0x3c8f8cad	0.017523134
237	0xbc253ee8	-0.010085799
238	0xbc6e1b0c	-0.014532816
239	0x3cc695c5	0.024241338
240	0x3d7a275f	0.061072703
241	0x3d4d985e	0.050194137
242	0xbcb0b597	-0.021570964
243	0x3cb63ff2	0.022247288
244	0xbc8329be	-0.016011115
245	0x3ca7df31	0.020492168
246	0xbd85d0ff	-0.065340035
247	0x3d2f3c3c	0.042782053
248	0xbdac4c36	-0.084129736
249	0xbe41e0ab	-0.1893336
250	0x3d83d038	0.06436199
251	0xbd3fbea4	-0.04681267
252	0x3deb0188	0.114749014
253	0xbd626133	-0.055268478
254	0x3de37990	0.111071706
255	0xbd3bd67d	-0.04585885

bias f4 [64]
0	0xbcbf354a	-0.02334084
1	0xbcd63ce6	-0.026152086
2	0x3d53c6f8	0.051703423
3	0x3ca8bf4a	0.020599026
4	0x3cda619d	0.026657874
5	0xbc165633	-0.009175825
6	0xbd117d80	-0.035520077
7	0x3ceb0bb8	0.028692111
8	0xbcfd6033	-0.03092966
9	0xbd1d4ed6	-0.038405262
10	0xbd2c8d86	-0.042127155
11	0xbd538bba	-0.051646926
12	0xbd453614	-0.048147276
13	0xbc321767	-0.010869837
14	0xbcf7fc9f	-0.030271826
15	0x3d3c3ad3	0.045954537
16	0xbd4cbe98	-0.049986452
17	0x3c98b2cb	0.018639943
18	0x3e96a94e	0.29426044
19	0x3e931eda	0.28734475
20	0xbc32a6ab	-0.010903995
21	0x3d53d027	0.05171218
22	0xbd60a91d	-0.05484878
23	0xbcd44839	-0.025913345
24	0x3c713015	0.014720936
25	0x3e093a27	0.1340109
26	0xbcb3cec9	-0.021949189
27	0xbd70785d	-0.058708537
28	0xbcd7b977	-0.026333554
29	0x3d76d364	0.06026019
30	0x3d5ccd78	0.053906888
31	0xbd2a4380	-0.04156828
32	0x3cc7bddb	0.024382522
33	0x3d2efcbb	0.04272149
34	0xbe96a817	-0.29425117
35	0xbd1929c6	-0.037393354
36	0x3c4a769a	0.012357378
37	0x3d559238	0.0521414
38	0xbd622792	-0.05521352
39	0x3bbd601e	0.0057792803
40	0x3d4ea5a1	0.050450925
41	0xbc6e3bca	-0.014540622
42	0x3caa216e	0.020767894
43	0xbd50ff3a	-0.051024653
44	0x3c904797	0.017612262
45	0xbd25987c	-0.040428624
46	0xbd5baf61	-0.05363405
47	0x3ce30d9f	0.027716456
48	0x3cee3e40	0.029082417
49	0x3d16a9b8	0.03678295
50	0x3d46482b	0.04840867
51	0xbc8895b9	-0.016672956
52	0xbd4c4c56	-0.049877487
53	0x3d0e80c8	0.034790784
54	0x3daea7bf	0.08528089
55	0xbd236cac	-0.03989856
56	0xbd75ebf2	-0.060039468
57	0xbd007683	-0.03136302
58	0xbd138708	-0.036017448
59	0x3ceadc12	0.02866939
60	0xbd85acee	-0.06527124
61	0x3ce0286a	0.02736302
62	0x3b6c1475	0.0036022936
63	0xbd251ba6	-0.04030957

weight f4 [64, 64]
0	0x3cfddcb6	0.030989032
1	0xbdfc03e0	-0.123054266
2	0xbcacc67d	-0.02109074
3	0xbe80f24c	-0.25184858
4	0xbd022e08	-0.03178218
5	0xbe2858b0	-0.16440082
6	0x3e1f0925	0.15530832
7	0xbde95625	-0.11393384
8	0xbd25db35	-0.040492255
9	0xbc77ae82	-0.0151172895
10	0xbe7dccab	-0.24785106
11	0xbd69dc13	-0.057094645
12	0xbe68c1d1	-0.22730185
13	0x3dcb111e	0.09915374
14	0x3e0b22f5	0.13587554
15	0x3dcf3f68	0.10119516
16	0xbe4c261b	-0.19936411
17	0xbd2a04f5	-0.041508634
18	0x3dbc71f4	0.09201422
19	0xbcdef618	-0.027216956
20	0x3e463d59	0.1935934
21	0x3e2dd3a4	0.16975266
22	0x3d928dff	0.0715599
23	0xbe35773c	-0.17721266
24	0x3da0fb38	0.07860416
25	0x3e387b79	0.18015851
26	0x399bf25b	0.00029744473
27	0x3c6fb650	0.014630869
28	0x3e3be2e1	0.18348266
29	0x3e443353	0.19160204
30	0xbe71dd57	-0.2361959
31	0x3d6867fd	0.056739796
32	0x3ca96bf0	0.020681351
33	0x3df8786a	0.12132342
34	0x3c4e4009	0.012588509
35	0xbe5c7562	-0.21529153
36	0xbd5f801b	-0.05456553
37	0xbd878c53	-0.066185616
38	0x3ec91d40	0.39280128
39	0xbe94aab4	-0.29036486
40	0x3e2ec711	0.17068125
41	0xbefd3f80	-0.4946251
42	0xbd16eada	-0.036845066
43	0xbe6275bc	-0.22115225
44	0xbe7b78d6	-0.24557814
45	0xbca2553a	-0.01981603
46	0xbda66618	-0.081249416
47	0x3e843f75	0.25829664
48	0x3d385fb3	0.04501314
49	0x3d5e135e	0.05421769
50	0x3c8da379	0.017289864
51	0xbbc83553	-0.0061098724
52	0x3e31a944	0.17349726
53	0xbe905c8f	-0.28195617
54	0xbdf6dd78	-0.120539606
55	0xbe6b6c27	-0.22990476
56	0x3d788990	0.060678065
57	0xbe084069	-0.1330582
58	0xbda66afb	-0.08125874
59	0x3cc97ca4	0.024595566
60	0xbd8ee627	-0.06977492
61	0xbdf5fd66	-0.120112225
62	0x3d91093c	0.070818394
63	0xbe223da3	-0.15843825
64	0xbccb1283	-0.0247891
65	0x3d04b787	0.032401588
66	0x3d3738b0	0.044731796
67	0x3ab74f3a	0.0013985403
68	0x3ca99dd7	0.020705147
69	0xbcb2121d	-0.021737153
70	0x395dd601	0.00021155925
71	0xbda32b46	-0.07967238
72	0x3d0c5bf3	0.034267377
73	0xbdb84137	-0.08996814
74	0x3a628d6f	0.0008642291
75	0xbc25094c	-0.010073017
76	0xbd1271a4	-0.035752907
77	0x3cc2364a	0.023707528
78	0x3a6f616c	0.00091316435
79	0x3d1868e9	0.037209425
80	0x3d428701	0.04749203
81	0xbc9deb6b	-0.019277295
82	0x3cf7fa83	0.03027082
83	0x3c2a3349	0.010388204
84	0x3d5805cb	0.0527399
85	0xbcd659e4	-0.02616591
86	0x3d0433d6	0.032275997
87	0x3d6afbb9	0.057368968
88	0xbd2eb57f	-0.042653557
89	0xbd7bb8b5	-0.061455447
90	0x3cb1316c	0.021630011
91	0xbdb22787	-0.086989455
92	0x3dbabf8f	0.09118568
93	0x3d3e39c3	0.046441805
94	0x3d39e1c5	0.045381326
95	0xba69544f	-0.00089008076
96	0x3ce3150a	0.027719993
97	0x3d834e5a	0.06411429
98	0xbd8289dc	-0.06373951
99	0xba93681e	-0.0011246239
100	0xbc0a83a4	-0.008454237
101	0xbd0bf13c	-0.034165606
102	0x3c9d09ca	0.019169707
103	0xbdb3a036	-0.08770792
104	0x3d67604e	0.056488328
105	0xbcb11296	-0.021615308
106	0x3b2c136f	0.00262567
107	0xbc6eef7e	-0.014583467
108	0xbc70b171	-0.014690743
109	0x3c19affb	0.009380336
110	0x3cff65fd	0.031176561
111	0x3d319812	0.043357916
112	0xbd8825f4	-0.06647864
113	0x3adf0d9c	0.0017017606
114	0xbcb63098	-0.022239968
115	0x3b6dcb4d	0.0036284507
116	0xbd0f1627	-0.034933235
117	0x3c3f646e	0.011681659
118	0xbd7052df	-0.058672782
119	0xbcc0a66c	-0.023516856
120	0x3d9b483b	0.07582136
121	0xbdd5ff5d	-0.10449097
122	0x3d3276ee	0.04357045
123	0x3cd82dd4	0.02638904
124	0xbd83907c	-0.064240426
125	0xbd818df6	-0.06325905
126	0x3d86cb3e	0.06581734
127	0xbd043ac2	-0.0322826
128	0x3beb5aac	0.00718244
129	0xbc454a94	-0.012041707
130	0x3da2f78b	0.07957371
131	0x3c9fd8af	0.019512502
132	0x3df19224	0.11795452
133	0x3d3696ce	0.044577412
134	0x3c64ef71	0.013973103
135	0xbb2f74e5	-0.0026772555
136	0xbca56a6f	-0.020192353
137	0xbd0af981	-0.03392935
138	0x3d747ec0	0.05969119
139	0xbd7dd7b7	-0.0619733
140	0x3c407edb	0.011748995
141	0xbc158e3e	-0.009128151
142	0xbd359fef	-0.044341978
143	0xbcfca1fb	-0.030838957
144	0xbcacd8b6	-0.02109943
145	0x3c24d74e	0.010061098
146	0xbc8449a7	-0.016148401
147	0x3cccd066	0.025001716
148	0xbc09ffaf	-0.008422776
149	0xbc2529e0	-0.010080785
150	0xbd8e08ea	-0.06935294
151	0x3d17d58f	0.0370689
152	0x3c33fb3f	0.010985195
153	0x3ddb1cd1	0.10698856
154	0xbd53632a	-0.051608242
155	0xbd1b1de6	-0.03787031
156	0x3d7b2d45	0.06132247
157	0xbd21c600	-0.03949547
158	0xbcbf4731	-0.023349376
159	0x3d497561	0.049184207
160	0x3ca69122	0.020332877
161	0xbd9e0c07	-0.07717138
162	0x3d3f1ad2	0.046656437
163	0x3c899bbc	0.016797893
164	0x3cf937d1	0.030422123
165	0x3cdf5460	0.027261913
166	0x3c63a9fb	0.013895507
167	0xbd2a3078	-0.04155013
168	0x3ca41982	0.020031694
169	0xbd9eb78b	-0.07749852
170	0xbac9f0ce	-0.0015406848
171	0x3c86ae77	0.016440613
172	0x3d9aa679	0.075512834
173	0x3c754f01	0.014972449
174	0xbd305f4e	-0.04305964
175	0x3d387955	0.045037586
176	0x3cc7e8db	0.024403026
177	0xbcf14101	-0.029449942
178	0x3dac489d	0.084122874
179	0xbd655401	-0.055988315
180	0xba3ca87b	-0.00071967364
181	0x3d70e714	0.058814123
182	0x3daa35e1	0.08311058
183	0xbc803c9d	-0.015653903
184	0x3d6e5c8c	0.05819373
185	0xbcc27755	-0.023738543
186	0x3c29979c	0.010351088
187	0xbc28732f	-0.010281368
188	0x3c25c83d	0.010118541
189	0xbd856f62	-0.06515385
190	0x3dc33453	0.095314644
191	0x3d23d70c	0.040000007
192	0xbc13a5f5	-0.009011735
193	0x3bfb1620	0.0076625496
194	0xbd9dfe04	-0.07714465
195	0x3c8077e6	0.015682172
196	0x3d058425	0.032596726
197	0x3cb25216	0.021767657
198	0x3cffef2c	0.031241976
199	0x3d872ac2	0.06599952
200	0x3bfae122	0.0076562325
201	0x3d6dfc34	0.058101848
202	0x3dd72445	0.10504965
203	0x3cbe7790	0.023250371
204	0x3da8ff2b	0.082517944
205	0xbd9b574d	-0.07585011
206	0xbd914d03	-0.07094767
207	0x3cd736c0	0.026271224
208	0x3e00e6f3	0.125881
209	0xbdc6f607	-0.09714895
210	0x3d5d51d5	0.05403312
211	0xbd1c5bbf	-0.038173433
212	0xbd4a9d21	-0.049466256
213	0xbd979304	-0.07401088
214	0xbda43389	-0.08017642
215	0x3d24fae1	0.04027832
216	0x3d8be792	0.06831278
217	0x3d76d5f7	0.060262647
218	0xbde96950	-0.1139704
219	0xbe3457a5	-0.17611559
220	0x3e02fba1	0.12791301
221	0xbd628d4c	-0.055310532
222	0x3dc2528a	0.09488399
223	0xbb90243a	-0.00439885
224	0xbd832c7c	-0.06404969
225	0xbd5f4f9d	-0.054519285
226	0x3de83834	0.11338845
227	0xbce1b09d	-0.027550036
228	0xbd845c65	-0.06462935
229	0x3d8c8413	0.06861129
230	0xbe46e0e3	-0.19421725
231	0x3da96ef5	0.082731165
232	0xbdf36ebc	-0.11886355
233	0xbd9f80fa	-0.07788272
234	0x3d623957	0.055230465
235	0x3d9ee9dc	0.07759449
236	0x3d790af4	0.06080146
237	0x3db0734c	0.08615741
238	0x3d30d41a	0.043171026
239	0xbe1d9490	-0.15388703
240	0x3e0dbf5c	0.13842529
241	0xbc99ce63	-0.01877517
242	0xbb6fc86e	-0.0036587971
243	0x3dace433	0.08441963
244	0xbd24f0e3	-0.04026879
245	0x3e05d608	0.13069928
246	0x3dc540e4	0.096315175
247	0x3d8e981c	0.06962606
248	0xbda2fe58	-0.079586685
249	0xbd3537f4	-0.044242814
250	0x3d6ada28	0.057336956
251	0x3d9b86ff	0.07594108
252	0x3bed2d0f	0.0072380374
253	0xbc85897e	-0.016300913
254	0x3dd08ab6	0.10182707
255	0x3dff4c63	0.124657415

bias f4 [64]
0	0x3d5d65ec	0.05405228
1	0x3d939d66	0.07207756
2	0x3a2fe7b8	0.0006710249
3	0xbd238c46	-0.039928697
4	0x3ca6b20b	0.02034857
5	0x3ca030d4	0.019554533
6	0xbdc646c1	-0.09681464
7	0xbb89f42e	-0.0042100167
8	0xbbe77855	-0.0070639052
9	0x3bcb35d9	0.0062014875
10	0x3da2075b	0.07911559
11	0x3cc9e740	0.024646401
12	0xbe065b32	-0.13120726
13	0xbd7b7172	-0.061387487
14	0x3d8e6a5e	0.06953882
15	0x3e116912	0.14200237
16	0xbd52527f	-0.051348206
17	0xbd4df9f4	-0.050287202
18	0x3c48e0f8	0.012260668
19	0x3dba922b	0.091099106
20	0xbe5214c2	-0.20515731
21	0x3de7ee53	0.113247536
22	0xbca7d6e4	-0.02048821
23	0x3d1d3b05	0.038386364
24	0x3e18cd6f	0.14922117
25	0xbd0e5436	-0.03474828
26	0x3c8ef1ec	0.017449342
27	0xbdb51f21	-0.08843828
28	0xbcf32f2c	-0.02968558
29	0x3d50c28c	0.050966784
30	0x3d2342f2	0.039858766
31	0x3d5671b4	0.05235453
32	0xbdfc65f9	-0.12324137
33	0xbda10ac9	-0.07863385
34	0xbea336d6	-0.31877774
35	0xbea4e911	-0.32209066
36	0x3d9444ec	0.07239708
37	0x3dc9d9c9	0.09855992
38	0x3e207751	0.15670516
39	0x3d0d0828	0.034431607
40	0x3c4cda59	0.01250323
41	0xbd3984db	-0.045292716
42	0x3cb3d2eb	0.02195116
43	0xbceb1b89	-0.028699653
44	0x3d89aa05	0.06721882
45	0xbd98577a	-0.0743856
46	0x3d9fdc60	0.07805705
47	0x3d1d043a	0.03833411
48	0xbe1f94e1	-0.15584137
49	0xbcc0a468	-0.023515895
50	0xbbc12af9	-0.0058950153
51	0x3cabb82d	0.020961845
52	0x3d0765a7	0.033055928
53	0xbd3c6d78	-0.046002835
54	0x3dfeeea8	0.12447864
55	0x3c741b5b	0.0148991
56	0x3d2df8e6	0.042473696
57	0xbde2facf	-0.11082994
58	0x3c671c52	0.014105873
59	0xbd076acb	-0.03306083
60	0xbb9d4f86	-0.0048007397
61	0x3bff7757	0.007796209
62	0x3d0f6802	0.0350113
63	0xbd2870ad	-0.04112308

weight f4 [64, 64]
0	0x3ea371d2	0.31922776
1	0x3d364ff7	0.044509854
2	0x3e36439e	0.17799231
3	0xbc70b581	-0.014691711
4	0x3c8a9ea2	0.016921345
5	0x3e07dd73	0.1326807
6	0xbe448b14	-0.19193679
7	0xbd8e40a5	-0.06945924
8	0xbd8c6fd8	-0.0685727
9	0xbdccf7aa	-0.10008176
10	0x3c04806f	0.008087262
11	0x3e6e85e1	0.23293258
12	0xbd9398fd	-0.072069146
13	0xbc7264ac	-0.01479451
14	0xbdd5554e	-0.10416661
15	0x3e934645	0.2876455
16	0xbe754033	-0.23950271
17	0xbdc63fda	-0.096801475
18	0xbe34ce06	-0.17656717
19	0x3d890358	0.06690091
20	0xbe6d376a	-0.2316567
21	0xbe1c22da	-0.1524767
22	0x3d1e1484	0.038593784
23	0xbdd9efe4	-0.10641459
24	0x3eba1073	0.36340675
25	0x3dabb32e	0.08383785
26	0xbe46eb8d	-0.19425793
27	0xbd9ef403	-0.07761385
28	0xbcac9952	-0.021069203
29	0x3c529a19	0.012854123
30	0x3d048543	0.03235365
31	0xbd73c3bd	-0.059512842
32	0xbe32122b	-0.17389743
33	0x3dcb087c	0.09913728
34	0x3e62537d	0.22102161
35	0x3e83d0c8	0.25745225
36	0x3db00c11	0.085960515
37	0xbd0496a8	-0.03237024
38	0x3e0ebc67	0.13939057
39	0x3d79e587	0.06100991
40	0x3b2a19aa	0.0025955238
41	0xbd3aede1	-0.045637015
42	0x3df069a9	0.11738903
43	0x3a820021	0.0009918251
44	0xbdb98630	-0.09058797
45	0xbe7a8c78	-0.24467647
46	0x3daa8948	0.083269656
47	0x3cfb8814	0.030704536
48	0xbda57810	-0.08079541
49	0x3d6be3eb	0.057590406
50	0xbde1410f	-0.10998737
51	0xbe6212f2	-0.2207754
52	0xbe5fe5a6	-0.21864948
53	0x3cea5c80	0.02860856
54	0xbd2823e8	-0.041049868
55	0x3c9001e3	0.017579025
56	0x3e517690	0.20455384
57	0xbe922a6c	-0.2854799
58	0x3cd15e81	0.025557758
59	0x3bd20e59	0.006410402
60	0x3d99ccc3	0.07509758
61	0x3e361743	0.17782311
62	0x3bc799b3	0.0060913204
63	0xbd399310	-0.045306265
64	0x3ed2024d	0.4101738
65	0x3d202a38	0.039102763
66	0xbe032a82	-0.12809184
67	0xbd3a40cf	-0.045471963
68	0xbe48a187	-0.19592868
69	0xbe782aa2	-0.24235013
70	0xbe0f766f	-0.14010023
71	0x3d1ca483	0.038242828
72	0xbd74c7fb	-0.05976103
73	0x3dc004ee	0.0937594
74	0xbdf910df	-0.12161421
75	0x3ea4d4d8	0.32193637
76	0x3e8b4da1	0.27207664
77	0xbe22a229	-0.15882172
78	0xbe0391fb	-0.12848656
79	0x3ec42d6a	0.38315898
80	0xbe6ec631	-0.23317792
81	0xbc8bc8d4	-0.017063536
82	0xbd94ef6c	-0.072722286
83	0x3da66d9a	0.081263736
84	0xbe080b20	-0.13285494
85	0x3c3680c4	0.011139099
86	0x3c05b262	0.008160206
87	0xbd51a308	-0.05118087
88	0x3e394072	0.1809099
89	0x3df97d49	0.12182099
90	0xbe5622d6	-0.20911726
91	0x3dadb400	0.08481598
92	0x3d7bfb51	0.06151897
93	0xbd2c7cbb	-0.04211114
94	0x3d445ccf	0.04794007
95	0xbd511aaa	-0.05105082
96	0xbe092ccf	-0.13396
97	0x3d2782d0	0.040896237
98	0x3e70ab20	0.23502779
99	0x3e218eaf	0.15777086
100	0x3d791398	0.0608097
101	0xbe2082dd	-0.1567492
102	0x3df83639	0.12119717
103	0x3cba9265	0.022774884
104	0xbcab5779	-0.020915734
105	0xbc9809f7	-0.01855944
106	0xbd06e512	-0.032933302
107	0x3d764a36	0.060129367
108	0xbdb31ca4	-0.08745697
109	0x3ddd672a	0.108106926
110	0xbde40c47	-0.11135154
111	0x3873182b	5.7958223e-05
112	0xbdc72f1b	-0.097257815
113	0xbc379079	-0.011203879
114	0x3cf39038	0.029731855
115	0xbd02449a	-0.031803705
116	0x3dcd28b7	0.10017531
117	0xbc152178	-0.009102218
118	0x3c409570	0.011754379
119	0x3c924ad9	0.017857956
120	0xbb5bde74	-0.003354934
121	0xbe685ae5	-0.22690924
122	0xbccaa146	-0.024735104
123	0xbdd33163	-0.10312154
124	0x3d9e911d	0.07742522
125	0xbda9107b	-0.082550965
126	0xbe2d4cac	-0.16923779
127	0x3dca5952	0.09880318
128	0xbccf79e4	-0.025326677
129	0xbd6a1996	-0.057153307
130	0xbdecedc9	-0.115687914
131	0x3d30e3e9	0.043186102
132	0xbc78d939	-0.015188509
133	0x3d806333	0.06268921
134	0x3de6a2e5	0.112615384
135	0xbe0ac832	-0.13552931
136	0x3db639d6	0.0889775
137	0x3ddff0ec	0.10934624
138	0x3e133e41	0.14379217
139	0xbd646d07	-0.05576804
140	0x3c1de983	0.009638193
141	0xbdfff7e4	-0.12498453
142	0x3d09af43	0.03361441
143	0xbdef26ce	-0.11677323
144	0xbdf918c1	-0.121629246
145	0xbe09fae4	-0.13474613
146	0x3e14b6f7	0.1452292
147	0x3d2e4e0d	0.042554904
148	0x3dd14e22	0.10219981
149	0x3e5aeb9e	0.21378943
150	0x3d150b49	0.036387715
151	0x3e5239ed	0.2052991
152	0xbe742aee	-0.23844501
153	0xbe899404	-0.2687074
154	0x3dfacf4b	0.12246569
155	0x3b0cf48c	0.0021508066
156	0x3dce34a5	0.10068635
157	0x3daeb1d4	0.08530012
158	0xbd310ef9	-0.04322717
159	0x3d8876c6	0.06663279
160	0x3d7d9052	0.061905213
161	0x3d411473	0.047138643
162	0xbec2a68f	-0.380177
163	0xbee0ec9a	-0.43930513
164	0x3e02e68d	0.1278326
165	0xbce0b078	-0.027427897
166	0xbd84bedf	-0.06481718
167	0x3ea1bc7a	0.3158911
168	0x3d69e9d7	0.057107773
169	0x3d0e9466	0.034809493
170	0xbdd0a73d	-0.10188148
171	0x39d3111f	0.00040257812
172	0xbcc4abe8	-0.024007753
173	0x3cbf4e9e	0.023352917
174	0x3dae5225	0.085117616
175	0xbd82809d	-0.06372187
176	0x3df6b303	0.120458625
177	0xbd67d06e	-0.05659526
178	0x3e4de1a7	0.20105611
179	0x3dbd8dcb	0.092555605
180	0x3b4e954c	0.0031522093
181	0xbd822dba	-0.06356378
182	0x3e679651	0.22615935
183	0xbe6042ef	-0.21900533
184	0x3d7fe428	0.062473446
185	0xbcafbd65	-0.021452615
186	0x3d440e41	0.047865156
187	0xbe3641ed	-0.17798586
188	0x3d03e436	0.03220006
189	0xbdc0bdd4	-0.09411207
190	0x3c6f36f7	0.014600507
191	0x3e4f74a6	0.20259342
192	0x3df605dd	0.12012837
193	0x3d00ca40	0.03144288
194	0xbd93bfef	-0.07214343
195	0xbb1dcdeb	-0.0024079036
196	0x3c808245	0.015687117
197	0xbd8ee579	-0.06977362
198	0xbdf76066	-0.120789334
199	0xbe0d96c9	-0.13827051
200	0x3d7e5c16	0.06209954
201	0x3cad289e	0.021137532
202	0x3dbada96	0.09123723
203	0x3dd70323	0.10498645
204	0xbdbe3b34	-0.09288636
205	0xbd7fd730	-0.06246108
206	0xbd82fcd3	-0.06395879
207	0x3e7bcf4f	0.245908
208	0xbe4c348f	-0.19941925
209	0xbd3d8b89	-0.04627565
210	0xbdfd3d05	-0.12365154
211	0x3d1e4ca7	0.03864732
212	0xbe153391	-0.14570452
213	0x3d351caf	0.044216808
214	0x3cfcb3b7	0.030847413
215	0x3d775ceb	0.060391348
216	0x3e19f65f	0.1503539
217	0xbbe0b809	-0.006857876
218	0xbd88d2b1	-0.06680811
219	0xbd944f73	-0.07241716
220	0xbdbb16f5	-0.09135238
221	0xbe286f02	-0.16448596
222	0x3c9af67a	0.018916357
223	0xbd96e72d	-0.07368312
224	0xbe02b150	-0.12762952
225	0x3d265941	0.040612463
226	0x3eaa7746	0.33294123
227	0x3ebc10fd	0.3673171
228	0xbd5a4181	-0.053285126
229	0x3d81b9cf	0.06334268
230	0x3e0f60fc	0.1400184
231	0x3d9d51ff	0.07681655
232	0x3cd6e531	0.026232334
233	0xbdac21fd	-0.0840492
234	0xbe118d5c	-0.1421408
235	0xbdce0b14	-0.10060707
236	0xbd82bfb9	-0.063842244
237	0xbd9d6e45	-0.07687048
238	0xbca50488	-0.020143762
239	0x3d0e2a6e	0.034708433
240	0xbdbe7194	-0.09299007
241	0xbcd87f0f	-0.026427774
242	0xbd30467e	-0.043035977
243	0xbc741e13	-0.014899748
244	0x3cb1d6e6	0.021708917
245	0x3d80c9e1	0.06288505
246	0xbb6a0eed	-0.0035714463
247	0x39dbf2cc	0.00041951833
248	0xbc895393	-0.016763484
249	0xbd5c6e99	-0.05381641
250	0xbd80ba4c	-0.06285533
251	0xbdcba3f5	-0.09943382
252	0xbc848da4	-0.01618082
253	0xbced719b	-0.028984835
254	0x3d54375b	0.051810604
255	0x3dd0e505	0.10199932

bias f4 [64]
0	0x3e4530af	0.19256853
1	0x3cf2cd3b	0.029638877
2	0x3e2b46e9	0.16726269
3	0x3e8536b1	0.2601829
4	0x3d5093b3	0.050922107
5	0x3d6061ac	0.054780647
6	0xbca424bb	-0.020037046
7	0xbe8027e5	-0.25030437
8	0xbd9c0622	-0.07618357
9	0x3e41974d	0.18905373
10	0xbbe513a4	-0.0069908667
11	0x3dc68a9b	0.09694406
12	0x3dbc127b	0.09183212
13	0xbe3ffc36	-0.18748555
14	0xbdeba6f2	-0.11506452
15	0xbda6bff9	-0.08142085
16	0xbcbf7727	-0.023372246
17	0xbe8044a9	-0.25052384
18	0x3f0198dc	0.5062387
19	0x3dfa30d3	0.12216344
20	0xbe441b8e	-0.19151136
21	0x3f238512	0.63874924
22	0x3e84d6bb	0.25945076
23	0x3ddba933	0.107256316
24	0x3ea48e4d	0.32139817
25	0x3c3034b2	0.010754751
26	0x3e404234	0.18775254
27	0x3c22fbea	0.009947756
28	0xbd6cf7ae	-0.057853393
29	0xbdb306bc	-0.08741519
30	0xbd146b05	-0.036234874
31	0xbdb9981d	-0.090622164
32	0xbe09bb49	-0.1345035
33	0xbe8ac305	-0.27101913
34	0xbd9dd3de	-0.07706426
35	0xbe70b9c1	-0.2350836
36	0x3e8d3423	0.2757884
37	0x3dc205f6	0.09473793
38	0xbe207e28	-0.15673125
39	0xbe7d9281	-0.24762918
40	0x3e0d164a	0.13778034
41	0xbe27c71b	-0.16384546
42	0xbe829e27	-0.25511286
43	0xbe24afdf	-0.16082714
44	0xbded39d8	-0.115832984
45	0xbdc4dd6f	-0.096125476
46	0xbd874411	-0.066047795
47	0x3b4b4761	0.0031017887
48	0xbd36212c	-0.04446523
49	0xbd979f42	-0.07403423
50	0xbe6f1733	-0.23348694
51	0xbe640a49	-0.22269548
52	0x3ec5dee5	0.38646618
53	0x3cf6b776	0.030116778
54	0x3dc54305	0.096319236
55	0xbe1248a1	-0.14285518
56	0xbf016a1e	-0.50552547
57	0x3dfe13c9	0.124061175
58	0xbe6e69d6	-0.2328256
59	0xbdd9fd58	-0.106440246
60	0xbd4b313e	-0.049607508
61	0x3deec1b3	0.11658039
62	0x3d1e2084	0.038605228
63	0xbc56b1f6	-0.013103953

weight f4 [64]
0	0x3eaacc9d	0.33359233
1	0x3ee3aac0	0.4446621
2	0x3ecf34a1	0.4046984
3	0x3f00b8cf	0.50281996
4	0x3f02fab5	0.511638
5	0x3e464297	0.1936134
6	0x3e9e47a1	0.30914024
7	0x3cb1bf57	0.021697683
8	0x3e8e338f	0.2777371
9	0x3f10e6b8	0.5660205
10	0x3ed85c27	0.42257807
11	0x3e768e7b	0.2407779
12	0x3f3030d9	0.68824536
13	0x3ee19493	0.44058666
14	0x3e887bf6	0.26657075
15	0x3ef23b83	0.4731103
16	0x3f256d6c	0.6462009
17	0x3e1a0574	0.15041143
18	0x3ce640aa	0.028107006
19	0x3e9a7c89	0.30173138
20	0x3e6673fb	0.2250518
21	0x3d85d6e4	0.06535128
22	0x3f058ef2	0.5217124
23	0x3f07267f	0.52793115
24	0x3f19618c	0.5991447
25	0x3efcc2ba	0.49367315
26	0x3ed01d69	0.40647438
27	0x3f08c71c	0.53428817
28	0x3ec5e5fd	0.3865203
29	0x3f2e46ce	0.6807679
30	0x3eb2cc37	0.3492143
31	0x3eeda8f0	0.46417952
32	0x3ebd61ba	0.36988622
33	0x3ea41003	0.32043466
34	0x3ce14c4c	0.027502201
35	0x3f03dada	0.51505816
36	0x3e84efd8	0.25964236
37	0x3eac4bca	0.33651572
38	0x3e442d25	0.19157846
39	0x3eccba4f	0.39985892
40	0x3e99a912	0.30011803
41	0x3ecdefdf	0.4022207
42	0x3ecd0fce	0.4005112
43	0x3f0eae51	0.55734736
44	0x3f2727be	0.65295017
45	0x3f243a61	0.6415158
46	0x3ea618c2	0.32440764
47	0x3eaa0aa0	0.3321123
48	0x3ee49321	0.446435
49	0x3f061123	0.523699
50	0x3ee8284a	0.45343238
51	0x3e7812ba	0.24225894
52	0x3eec4745	0.46148124
53	0x3e963b14	0.29341948
54	0x3eb300e3	0.34961614
55	0x3ec742dd	0.389182
56	0x3e8b59a4	0.27216828
57	0x3c853e22	0.016264979
58	0x3ed2dcec	0.41184175
59	0x3f060cb8	0.5236316
60	0x3e773c0a	0.24143997
61	0x3ca43255	0.020043531
62	0x3ee0fd37	0.43943188
63	0x3ea867fc	0.32891834

bias f4 [64]
0	0x3e70c808	0.23513806
1	0x3e746d56	0.23869833
2	0x3dadfec5	0.08495859
3	0x3d5306e3	0.05152024
4	0xbeb24800	-0.34820557
5	0x3e3e62f4	0.18592435
6	0xbe49690f	-0.19668983
7	0x3bdd462a	0.006752749
8	0xbddb3b2f	-0.10704648
9	0x3dbc7b4e	0.09203206
10	0xbcc0745a	-0.02349298
11	0xbe94a0be	-0.29028887
12	0x3e86af1d	0.26305476
13	0x3e494c69	0.19658054
14	0x3c14ae42	0.009074749
15	0xbe566a6b	-0.20939033
16	0x3d042157	0.032258358
17	0xbdd8bf2d	-0.10583339
18	0xbbb014f3	-0.005373591
19	0xbd90a7e2	-0.07063271
20	0x3d8cbe6e	0.06872259
21	0xbca46b4b	-0.020070693
22	0xbea003f0	-0.31253004
23	0x3dd4b20a	0.10385521
24	0xbcc9e3e8	-0.024644807
25	0xbe27a73c	-0.16372389
26	0xbe7f7116	-0.24945483
27	0xbbfeb460	-0.007772967
28	0xbd3b51f8	-0.04573247
29	0xbe053299	-0.13007583
30	0x3e19c302	0.15015796
31	0xbea50a36	-0.32234353
32	0x3cd71f5e	0.026260074
33	0xbca12aef	-0.019673793
34	0x3b3483b4	0.0027544321
35	0xbe5c2467	-0.21498261
36	0xbc59f954	-0.013304073
37	0x3d3cc790	0.046088755
38	0x3dd786bc	0.105237454
39	0x3d91145a	0.0708396
40	0xbdb59737	-0.088667326
41	0x3e356c41	0.17717077
42	0xbe23f278	-0.16010463
43	0xbb4372aa	-0.0029822984
44	0xbd570743	-0.05249716
45	0xbdc54897	-0.09632986
46	0xbe522975	-0.20523627
47	0x3e432f69	0.19061054
48	0x3e5f5e2e	0.2181327
49	0xbebcf21a	-0.3690346
50	0xbebd0827	-0.36920282
51	0xbe2ed657	-0.17073952
52	0xbe9697ff	-0.2941284
53	0x3e42ba6d	0.19016428
54	0xbe0ca85f	-0.13736103
55	0x3e547f39	0.20751657
56	0x3e0571c4	0.1303168
57	0x3b9c562a	0.0047710137
58	0x3d561283	0.052263748
59	0xbeb4e34b	-0.3532966
60	0x3e47abf2	0.19499186
61	0x3b73cf53	0.0037202432
62	0x3ce0422d	0.027375305
63	0xbe434cce	-0.19072267

running_mean f4 [64]
0	0x40674105	3.6133435
1	0x402b2c36	2.6745734
2	0xbe971e14	-0.29515135
3	0x3fd4fd86	1.6639869
4	0xbe550a34	-0.20804673
5	0x403e7a86	2.9762282
6	0xbff0b80c	-1.8806167
7	0xbc918b3f	-0.017766593
8	0x3f880dac	1.0629172
9	0xbf3f0d48	-0.7462964
10	0x3fedb65d	1.8571278
11	0xc025cf1c	-2.590766
12	0x403f6fc1	2.991196
13	0x3e276aea	0.16349378
14	0x3e2e421b	0.17017405
15	0xbefc0b11	-0.49227193
16	0x4004bfa2	2.0741963
17	0xbfac90d6	-1.34817
18	0x3c2976e5	0.010343288
19	0x40b1ac71	5.5523
20	0x3fd2a3b3	1.6456207
21	0x3fb1c68a	1.3888714
22	0xbf671cc3	-0.9027826
23	0x40511a08	3.2672138
24	0xbefb1498	-0.4903915
25	0x3e7e9453	0.24861269
26	0xbfa68576	-1.3009479
27	0xbfad54c0	-1.3541489
28	0x3ec215bb	0.37907204
29	0x3dbb798b	0.09154042
30	0x3f043598	0.5164428
31	0xbf4c568c	-0.7981956
32	0x3f4672e1	0.7751904
33	0xbf7055c8	-0.9388089
34	0x3f2194dc	0.63117766
35	0xbf78203b	-0.9692418
36	0x3de06b9d	0.109580256
37	0x3fb8d889	1.4441081
38	0xbffb0bdc	-1.9612994
39	0xbf245aa3	-0.642008
40	0xbf414059	-0.7548881
41	0x3f41e69f	0.75742525
42	0xbfef3773	-1.8688797
43	0x3e72cce2	0.23710969
44	0x3f1ae489	0.60504967
45	0xbf5501ee	-0.8320607
46	0x3cec0807	0.028812421
47	0x3fe1e4d5	1.7647959
48	0x40393aa2	2.8942037
49	0xc044b065	-3.0732663
50	0xc091aea8	-4.5525703
51	0xc03d9fc9	-2.9628775
52	0xbdb8270d	-0.08991823
53	0x401c25b7	2.439802
54	0xbda2b13c	-0.07943961
55	0x40286688	2.631258
56	0xbf81c745	-1.0138937
57	0xbcd0e30c	-0.02549889
58	0x3ed88272	0.42287022
59	0xc077098a	-3.8599572
60	0x3f5c8f25	0.8615592
61	0x3fde9945	1.7390524
62	0x3f9777da	1.1833451
63	0xbfbdb047	-1.481942
